…
2025-06-22 18:03:51.708 | INFO     | src.fh.model_selector:get_model:26 - Model selector: aanmaken van model 'cnn_se_skip_model' met config: {'input_channels': 1, 'hidden_size': 64, 'num_layers': 2, 'output_size': 5, 'conv_filters_per_block': 32, 'kernel_size_per_block': 3, 'use_dropout': False, 'dropout_rate': 0.3, 'reduction_ratio': 8, 'num_features': 187, 'input_size_after_flattening': 1472}
2025-06-22 18:03:51.717 | INFO     | src.fh.training_framework:run_training:420 - Model 'cnn_se_skip_model' van experiment 'CNN_SE_Skip_Experiment_1_heart_big_train' ge誰nitialiseerd en verplaatst naar cpu.
2025-06-22 18:03:51.717 | DEBUG    | src.fh.training_framework:run_training:421 - Model architectuur: 
CNNSESkipModel(
  (features): Sequential(
    (0): CNNSESkipBlock(
      (conv): Conv1d(1, 32, kernel_size=(3,), stride=(1,), padding=(1,))
      (relu): ReLU(inplace=True)
      (pool): MaxPool1d(kernel_size=2, stride=2, padding=0, dilation=1, ceil_mode=False)
      (se): SqueezeExcitation(
        (avg_pool): AdaptiveAvgPool1d(output_size=1)
        (fc): Sequential(
          (0): Linear(in_features=32, out_features=4, bias=False)
          (1): ReLU(inplace=True)
          (2): Linear(in_features=4, out_features=32, bias=False)
          (3): Sigmoid()
        )
      )
      (skip_conv): Conv1d(1, 32, kernel_size=(1,), stride=(1,))
    )
    (1): CNNSESkipBlock(
      (conv): Conv1d(32, 32, kernel_size=(3,), stride=(1,), padding=(1,))
      (relu): ReLU(inplace=True)
      (pool): MaxPool1d(kernel_size=2, stride=2, padding=0, dilation=1, ceil_mode=False)
      (se): SqueezeExcitation(
        (avg_pool): AdaptiveAvgPool1d(output_size=1)
        (fc): Sequential(
          (0): Linear(in_features=32, out_features=4, bias=False)
          (1): ReLU(inplace=True)
          (2): Linear(in_features=4, out_features=32, bias=False)
          (3): Sigmoid()
        )
      )
      (skip_conv): Identity()
    )
  )
  (classifier): Sequential(
    (0): Linear(in_features=1472, out_features=64, bias=True)
    (1): ReLU()
    (2): Identity()
    (3): Linear(in_features=64, out_features=5, bias=True)
  )
  (softmax): Softmax(dim=1)
)
2025-06-22 18:03:51.718 | DEBUG    | src.fh.training_framework:run_training:422 - Model-specifieke configuratie voor 'cnn_se_skip_model': {'input_channels': 1, 'hidden_size': 64, 'num_layers': 2, 'output_size': 5, 'conv_filters_per_block': 32, 'kernel_size_per_block': 3, 'use_dropout': False, 'dropout_rate': 0.3, 'reduction_ratio': 8, 'num_features': 187, 'input_size_after_flattening': 1472}
…
2025-06-22 18:03:52.591 | INFO     | src.fh.model_selector:get_model:26 - Model selector: aanmaken van model 'cnn_se_skip_model' met config: {'input_channels': 1, 'hidden_size': 128, 'num_layers': 3, 'output_size': 5, 'conv_filters_per_block': 64, 'kernel_size_per_block': 5, 'use_dropout': True, 'dropout_rate': 0.4, 'reduction_ratio': 16, 'num_features': 187, 'input_size_after_flattening': 1472}
2025-06-22 18:03:52.597 | INFO     | src.fh.training_framework:run_training:420 - Model 'cnn_se_skip_model' van experiment 'CNN_SE_Skip_Experiment_2_heart_big_train' ge誰nitialiseerd en verplaatst naar cpu.
2025-06-22 18:03:52.598 | DEBUG    | src.fh.training_framework:run_training:421 - Model architectuur: 
CNNSESkipModel(
  (features): Sequential(
    (0): CNNSESkipBlock(
      (conv): Conv1d(1, 64, kernel_size=(5,), stride=(1,), padding=(2,))
      (relu): ReLU(inplace=True)
      (pool): MaxPool1d(kernel_size=2, stride=2, padding=0, dilation=1, ceil_mode=False)
      (se): SqueezeExcitation(
        (avg_pool): AdaptiveAvgPool1d(output_size=1)
        (fc): Sequential(
          (0): Linear(in_features=64, out_features=4, bias=False)
          (1): ReLU(inplace=True)
          (2): Linear(in_features=4, out_features=64, bias=False)
          (3): Sigmoid()
        )
      )
      (skip_conv): Conv1d(1, 64, kernel_size=(1,), stride=(1,))
    )
    (1): Dropout(p=0.4, inplace=False)
    (2): CNNSESkipBlock(
      (conv): Conv1d(64, 64, kernel_size=(5,), stride=(1,), padding=(2,))
      (relu): ReLU(inplace=True)
      (pool): MaxPool1d(kernel_size=2, stride=2, padding=0, dilation=1, ceil_mode=False)
      (se): SqueezeExcitation(
        (avg_pool): AdaptiveAvgPool1d(output_size=1)
        (fc): Sequential(
          (0): Linear(in_features=64, out_features=4, bias=False)
          (1): ReLU(inplace=True)
          (2): Linear(in_features=4, out_features=64, bias=False)
          (3): Sigmoid()
        )
      )
      (skip_conv): Identity()
    )
    (3): Dropout(p=0.4, inplace=False)
    (4): CNNSESkipBlock(
      (conv): Conv1d(64, 64, kernel_size=(5,), stride=(1,), padding=(2,))
      (relu): ReLU(inplace=True)
      (pool): MaxPool1d(kernel_size=2, stride=2, padding=0, dilation=1, ceil_mode=False)
      (se): SqueezeExcitation(
        (avg_pool): AdaptiveAvgPool1d(output_size=1)
        (fc): Sequential(
          (0): Linear(in_features=64, out_features=4, bias=False)
          (1): ReLU(inplace=True)
          (2): Linear(in_features=4, out_features=64, bias=False)
          (3): Sigmoid()
        )
      )
      (skip_conv): Identity()
    )
    (5): Dropout(p=0.4, inplace=False)
  )
  (classifier): Sequential(
    (0): Linear(in_features=1472, out_features=128, bias=True)
    (1): ReLU()
    (2): Dropout(p=0.4, inplace=False)
    (3): Linear(in_features=128, out_features=5, bias=True)
  )
  (softmax): Softmax(dim=1)
)
2025-06-22 18:03:52.598 | DEBUG    | src.fh.training_framework:run_training:422 - Model-specifieke configuratie voor 'cnn_se_skip_model': {'input_channels': 1, 'hidden_size': 128, 'num_layers': 3, 'output_size': 5, 'conv_filters_per_block': 64, 'kernel_size_per_block': 5, 'use_dropout': True, 'dropout_rate': 0.4, 'reduction_ratio': 16, 'num_features': 187, 'input_size_after_flattening': 1472}
…
